ddpg_office_actor.pth (torch, 143084 bytes, 6 tensors)

net.0.weight f4 [256, 6]
-0.11062288 -0.2151573 -0.32387358 -0.0027192533 -0.08681816 -0.36224943 -0.07165089 -0.31803066
-0.097207785 0.38360393 0.32090932 -0.03840226 -0.19138288 -0.36315474 0.21034098 0.38636947
0.07666373 -0.33957005 -0.0538224 0.42804226 -0.3948011 -0.2107237 -0.27864012 0.3153464
-0.30240312 0.33371305 0.06931376 -0.29523596 -0.037679296 0.4415679 -0.56862503 0.15353127
0.40333015 0.101710185 -0.2319307 -0.024509218 -0.25705144 -0.55186564 -0.210987 0.104732744
-0.4948283 0.35697967 -0.7453987 0.4642896 0.20062701 -0.019551426 0.14423105 -0.4242895
-0.69678646 0.21827781 0.33439347 0.20051242 -0.06888779 -0.29735723 0.12366455 0.35124356
-0.40572363 0.25764385 0.090190366 0.088702075 -0.25349692 0.350174 -0.028658798 0.29145202
-0.30749068 -0.32129058 0.33202767 -0.06464538 -0.29705012 -0.15380672 0.13073099 -0.008176774
-0.36798298 0.36210606 0.29387268 -0.02074802 0.16204937 0.43263915 0.10345901 0.6220955
-0.41933757 -0.025178235 0.32120082 0.1362163 -0.20809579 -0.47001192 0.31717473 -0.3273924
-0.34510008 0.3971474 0.025607705 0.17641675 -0.21955821 -0.32770145 -0.026601076 -0.40704998
-0.5729707 0.1929946 0.25563753 -0.3781571 0.12813275 0.11326877 -0.059616 -0.117168784
0.31737238 0.06521353 -0.0007443726 -0.3487154 -0.03412044 0.2098571 -0.34668943 -0.045910835
0.39239556 -0.25832194 0.52139896 -0.12464274 0.7133312 0.25760004 -0.4398586 0.085076846
0.117188394 0.22178614 -0.22822756 -0.15837547 0.23498726 0.12752771 -0.03755203 0.11495477
-0.22098891 0.24003291 -0.07308546 -0.28404436 0.0031277335 0.4717833 -0.20755348 -0.31645557
-0.013361584 0.23757236 0.28273934 -0.46714482 -0.13520154 0.16054094 -0.058515903 0.12810569
0.42867005 -0.02504848 0.2975465 0.025063299 0.026918702 -0.09063169 0.17720045 0.24228683
0.03852563 -0.053712476 -0.33940256 0.3109139 0.1038422 -0.363261 -0.23522834 -0.39040315
-0.07732582 -0.16720319 0.33028838 -0.0987998 0.71273965 0.40265182 -0.08767374 0.07514434
0.44545242 -0.07417511 0.59321314 -0.034446634 0.42704183 0.08496219 0.041213848 0.4922262
-0.4573457 0.19366291 -0.24483836 0.06715056 0.01142262 0.26765284 -0.2063052 -0.5065042
-0.24653998 -0.13843717 0.4120601 -0.18625341 0.3911806 0.41492283 -0.25872827 -0.36167967
0.26610917 -0.013150394 -0.33423987 -0.40054494 -0.32455233 -0.39640117 -0.11047241 0.062346607
0.29323858 -0.26356584 0.10567665 -0.23226355 -0.5622624 0.09548144 0.049699515 0.08649894
0.4518206 0.18817268 -0.48982972 0.43949762 0.31728438 0.21445276 0.055842347 -0.13509594
0.36899963 0.33917385 -0.3911227 0.2403758 -0.41594163 -0.11367542 0.1454707 -0.57612735
-0.1632409 -0.057676356 -0.6323946 0.24841616 0.0034557767 0.5180677 -0.38865155 -0.03379767
0.5518103 0.17142828 0.5132772 0.49297428 0.5386119 -0.05636499 0.30305716 -0.09418123
0.11532292 -0.52873 0.4797772 -0.06119067 0.10049227 0.27352965 -0.07497281 -0.14641216
0.013625681 -0.408094 -0.3598664 0.35498387 0.38282877 -0.27984303 0.29759428 -0.17710035
00000000: 408e e2bd 3252 5cbe c2d2 a5be 8035 32bb
00000010: b8cd b1bd c278 b9be b4bd 92bd ead4 a2be
00000020: e014 c7bd bc67 c43e 3a4e a43e b04b 1dbd
00000030: e0f9 43be 6bef b9be a063 573e 38d2 c53e
00000040: e001 9d3d 20dc adbe e074 5cbd 5b28 db3e
00000050: 5f23 cabe f4c7 57be eba9 8ebe 1575 a13e
00000060: 95d4 9abe 70dc aa3e 5ff4 8d3d 2b29 97be
00000070: 9b55 1abd 3015 e23e 6991 11bf 4d37 1d3e
00000080: 4a81 ce3e 6e4d d03d 3e7f 6dbe 8ec7 c8bc
00000090: 3f9c 83be 1147 0dbf fa0c 58be 1f7e d63d
000000a0: 235a fdbe 0ac6 b63e 73d2 3ebf 5eb7 ed3e
000000b0: 2b71 4d3e 502a a0bc 4eb1 133e 793c d9be
000000c0: 9960 32bf 3884 5f3e 9f35 ab3e 2153 4d3e
000000d0: 0b15 8dbd 353f 98be d743 fd3d 32d6 b33e
000000e0: 02bb cfbe e5e9 833e bab5 b83d 6fa9 b53d
000000f0: 59ca 81be 024a b33e dbc5 eabc 3339 953e
00000100: 6b6f 9dbe 3380 a4be 88ff a93e cc64 84bd
00000110: f416 98be 827f 1dbe 58de 053e e0f7 05bc
00000120: 4468 bcbe f765 b93e 7b76 963e c0f7 a9bc
00000130: 45f0 253e e182 dd3e 51e2 d33d a741 1f3f
00000140: 6ab3 d6be 9642 cebc 6f74 a43e 497c 0b3e
00000150: 1017 55be 67a5 f0be ba64 a23e fa9f a7be
00000160: f5b0 b0be e756 cb3e 40c7 d13c 98a6 343e
00000170: ded3 60be 7cc8 a7be 80ea d9bc db68 d0be
00000180: 35ae 12bf 60a0 453e ece2 823e cf9d c1be
00000190: 3b35 033e 75f9 e73d e82f 74bd 30f6 efbd
000001a0: a27e a23e ac8e 853d 0022 43ba d38a b2be
000001b0: e0c1 0bbd c8e4 563e 4781 b1be 000d 3cbd
000001c0: 12e8 c83e c642 84be 677a 053f b144 ffbd
000001d0: e09c 363f 27e4 833e 2535 e1be c53c ae3d
000001e0: 7800 f03d e81b 633e 7cb4 69be 2e2d 22be
000001f0: 80a0 703e a096 023e 28d0 19bd 686d eb3d
00000200: eb4a 62be 30cb 753e d4ad 95bd 436e 91be
00000210: a9fa 4c3b 958d f13e e688 54be 7706 a2be
00000220: 8cea 5abc 2b46 733e 36c3 903e 9b2d efbe
00000230: 4672 0abe d864 243e 5fae 6fbd 232e 033e
00000240: a47a db3e 7832 cdbc 0458 983e 8c51 cd3c
00000250: 9c84 dc3c 1c9d b9bd 0974 353e 0a1a 783e
00000260: 0dcd 1d3d 9d01 5cbd 2cc6 adbe 1b30 9f3e
00000270: 38ab d43d 59fd b9be b3df 70be ece2 c7be
00000280: 005d 9ebd 5037 2bbe 8f1b a93e 8d57 cabd
00000290: 1b76 363f 6128 ce3e 4a8e b3bd 47e5 993d
000002a0: 5712 e43e 1fe9 97bd d1dc 173f ea17 0dbd
000002b0: 3aa5 da3e a800 ae3d dacf 283d 1305 fc3e
000002c0: 3729 eabe 924f 463e e8b6 7abe 3c86 893d
000002d0: f125 3b3c cb09 893e ac41 53be 42aa 01bf
000002e0: fa74 7cbe 79c2 0dbe 8bf9 d23e 37b9 3ebe
000002f0: d348 c83e c470 d43e 0878 84be 142e b9be
00000300: 763f 883e c074 57bc 7d21 abbe 3a14 cdbe
00000310: b92b a6be 18f5 cabe 5c3f e2bd 285f 7f3d
00000320: 5e23 963e 1af2 86be 006d d83d 7fd6 6dbe
00000330: 6ef0 0fbf c68b c33d b891 4b3d 5b26 b13d
00000340: 0855 e73e 57b0 403e f6ca fabe d505 e13e
00000350: 1973 a23e 8199 5b3e f2ba 643d 9756 0abe
00000360: 85ed bc3e 32a8 ad3e 3c41 c8be 1325 763e
00000370: 4df6 d4be a9ce e8bd 45f6 143e 157d 13bf
00000380: 9f28 27be 0b3e 6cbd 9de4 21bf ce60 7e3e
00000390: 507a 623b 16a0 043f 56fd c6be 6d6f 0abd
000003a0: 7143 0d3f e58a 2f3e 2266 033f 2067 fc3e
000003b0: 78e2 093f fade 66bd 4f2a 9b3e 17e2 c0bd
000003c0: 6c2e ec3d d95a 07bf 5ba5 f53e 11a3 7abd
000003d0: e4ce cd3d 140c 8c3e 588b 99bd 12ed 15be
000003e0: 403e 5f3c b2f1 d0be 6940 b8be 72c0 b53e
000003f0: 2202 c43e 9647 8fbe 475e 983e cb59 35be

net.0.bias f4 [256]
-0.3417774 -0.28342375 -0.020980775 -0.3897588 -0.16599107 -0.019163495 0.117190845 0.30736893
0.1944374 -0.41469857 0.35566685 -0.1571185 -0.31036657 -0.28987822 0.39498776 0.22121125
0.068403274 0.07305476 0.03400007 -0.16220224 -0.29755723 -0.15455985 0.27351347 0.15115285
0.23372869 -0.33067486 -0.30316737 -0.09626633 0.123388566 -0.096207455 0.19379784 0.3700138
-0.2723688 -0.035878778 -0.17571697 0.11616128 0.09628072 0.2161003 -0.17058998 0.008262646
0.23049535 -0.29746473 0.06985626 -0.0043907496 -0.32406458 0.17701878 -0.39818373 0.0444671
-0.06543655 0.015441503 0.25343412 -0.3846917 -0.3230726 0.26485726 -0.26402584 0.19955888
-0.14291084 -0.21655044 0.11836558 0.0057342947 0.4323029 -0.22447862 0.32446745 0.2419284
0.0941828 -0.2886187 -0.37987477 0.1209217 -0.13400471 0.18961865 0.07659614 -0.11438143
-0.17430298 -0.13923946 0.15584315 -0.15528548 0.056836367 -0.09553258 -0.036395945 -0.39719573
-0.15877245 0.12563615 -0.26368636 0.37856275 -0.13688324 0.24203447 -0.28295037 -0.34839764
-0.31114918 -0.054893196 -0.15794653 -0.16046993 0.004821241 0.35850897 -0.35838255 -0.17005765
-0.36551303 0.17019063 0.31333014 -0.4009542 -0.25542527 -0.25041193 0.14881384 0.12813938
-0.10452998 -0.45282122 0.021667719 0.19169873 -0.11700669 0.34992284 0.13633758 0.3839389
0.12131731 0.13491488 -0.06987418 0.4371597 -0.25723618 -0.009544952 -0.065226406 -0.21412398
0.37134928 0.08107621 -0.2673822 0.19200212 -0.30827284 -0.11437506 -0.0669275 0.38347867
0.20325752 0.21801753 -0.34790882 0.27067247 0.08521074 0.020400148 -0.07321063 0.3987141
0.20828503 0.057394184 -0.0645473 0.32934368 0.065852724 -0.057509907 -0.036756516 0.07209232
-0.14779311 -0.29634732 0.105137944 -0.31358185 0.21164522 -0.397871 -0.28373492 0.26087844
-0.14442049 -0.25679347 -0.062045693 -0.3935136 0.23732664 0.025618017 0.35817456 0.33515087
0.090719104 -0.39948532 -0.20446697 0.025525443 0.4527418 -0.42610177 0.058650564 -0.013503794
-0.31227812 -0.30136725 -0.12152888 -0.026886882 -0.059573427 -0.0743801 -0.05384171 0.24263498
0.24320585 0.26337668 0.2777759 0.17092137 -0.39573985 -0.043231726 -0.40206784 -0.0826388
0.17423017 -0.032397225 -0.27375495 -0.056693424 -0.25292966 -0.2801374 -0.1513854 0.26156044
0.33729675 0.087049186 -0.28834018 0.28579924 0.3001793 -0.0419929 0.20428911 0.5205042
0.13857941 0.15978304 -0.13323848 -0.2540445 0.019871265 0.1701463 -0.16184528 -0.13081834
0.3654362 -0.093928546 -0.18116367 -0.12890121 0.040189117 -0.16650166 0.20915866 0.18576276
0.2971937 0.23491277 -0.22002693 -0.18505584 -0.18286894 0.41175294 -0.12343371 0.036077913
-0.13592957 -0.05853875 0.3873181 0.03697884 0.2233728 -0.32942447 -0.023973173 0.28704846
-0.2826527 -0.26530966 0.13601181 -0.18565917 -0.20625243 -0.20185114 0.421823 -0.40791908
-0.3444563 -0.29734066 0.35962147 -0.14580923 0.27216837 0.22320125 -0.08382245 0.3534376
0.3032971 -0.37819645 0.27436727 0.05066493 -0.18401475 -0.38157672 -0.31851858 0.119287044
00000000: 73fd aebe eb1c 91be e0df abbc 778e c7be
00000010: 90f9 29be c3fc 9cbc c101 f03d 765f 9d3e
00000020: 991a 473e 5f53 d4be f719 b63e ace3 20be
00000030: 5ee8 9ebe eb6a 94be d63b ca3e 3485 623e
00000040: 0417 8c3d bc9d 953d a843 0b3d 5818 26be
00000050: 6c59 98be f044 1ebe f509 8c3e d0c7 1a3e
00000060: 9356 6f3e 374e a9be c138 9bbe 4827 c5bd
00000070: 25b3 fc3d 6a08 c5bd f172 463e 7372 bd3e
00000080: ec73 8bbe a0f5 12bd 26ef 33be f7e5 ed3d
00000090: d32e c53d 6649 5d3e 24af 2ebe 0d60 073c
000000a0: f906 6c3e 4c4d 98be cd10 8f3d 47e0 8fbb
000000b0: cbeb a5be 6944 353e bdde cbbe 2223 363d
000000c0: 9903 86bd 5cfe 7c3c 1ec2 813e 4ff6 c4be
000000d0: c669 a5be 5f9b 873e 652e 87be 2a59 4c3e
000000e0: 3857 12be 66bf 5dbe a769 f23d c0e6 bb3b
000000f0: ce56 dd3e b9dd 65be 9920 a63e 14bc 773e
00000100: e9e2 c03d d5c5 93be f27e c2be cca5 f73d
00000110: 8838 09be 642b 423e 70de 9c3d d040 eabd
00000120: 7b7c 32be ca94 0ebe 5995 1f3e 2803 1fbe
00000130: 40cd 683d 96a6 c3bd ea13 15bd 3d5d cbbe
00000140: 3f95 22be c3a6 003e e601 87be fad2 c13e
00000150: 1f2b 0cbe e2d7 773e dfde 90be 2d61 b2be
00000160: f24e 9fbe b0d7 60bd bcbc 21be 3b52 24be
00000170: 80fb 9d3b 7d8e b73e eb7d b7be 9823 2ebe
00000180: 8624 bbbe 7446 2e3e cf6c a03e de49 cdbe
00000190: 1ac7 82be fe35 80be a862 183e f836 033e
000001a0: d013 d6bd 2fd8 e7be 8080 b13c ac4c 443e
000001b0: 34a1 efbd 1629 b33e 149c 0b3e a493 c43e
000001c0: 3675 f83d 2027 0a3e 321a 8fbd 65d3 df3e
000001d0: 76b4 83be 6e62 1cbc 6c95 85bd 5143 5bbe
000001e0: 7e21 be3e 490b a63d 52e6 88be 349c 443e
000001f0: f0d5 9dbe 793d eabd 4911 89bd 5157 c43e
00000200: bd22 503e fd3f 5f3e 1b21 b2be 9595 8a3e
00000210: f882 ae3d 361e a73c 74ef 95bd 4124 cc3e
00000220: ac48 553e 2a16 6b3d 6031 84bd bc9f a83e
00000230: cbdd 863d 828f 6bbd 008e 16bd 23a5 933d
00000240: 1457 17be d6ba 97be 9052 d73d cd8d a0be
00000250: 86b9 583e bfb5 cbbe b445 91be dc91 853e
00000260: f7e2 13be 6f7a 83be a023 7ebd 9d7a c9be
00000270: c105 733e e0dc d13c a862 b73e e598 ab3e
00000280: f0ca b93d 5789 ccbe ca5f 51be bc1a d13c
00000290: c6cd e73e 032a dabe 933b 703d 043f 5dbc
000002a0: ebe2 9fbe cf4c 9abe 22e4 f8bd e141 dcbc
000002b0: 4403 74bd 9854 98bd 2089 5cbd 4e75 783e
000002c0: f40a 793e 4fd9 863e a538 8e3e 0306 2f3e
000002d0: 6a9e cabe c013 31bd d6db cdbe 883e a9bd
000002e0: 6569 323e f4b2 04bd 9c29 8cbe 5d37 68bd
000002f0: ff7f 81be 2b6e 8fbe c604 1bbe 40eb 853e
00000300: 29b2 ac3e d846 b23d 53a1 93be 4754 923e
00000310: 1ab1 993e bf00 2cbd 2a31 513e c33f 053f
00000320: c3e7 0d3e 2a9e 233e ab6f 08be 1f12 82be
00000330: 10c9 a23c d53a 2e3e c5ba 25be 3ef5 05be
00000340: 741a bb3e 9c5d c0bd f882 39be aefe 03be
00000350: 589d 243d 697f 2abe b02d 563e 9838 3e3e
00000360: c629 983e f98c 703e bd4e 61be 477f 3dbe
00000370: ff41 3bbe 48d1 d23e d0ca fcbd 6fc6 133d
00000380: 1f31 0bbe 54c6 6fbd 8f4e c63e 2077 173d
00000390: d7bb 643e 53aa a8be 6363 c4bc 04f8 923e
000003a0: dbb7 90be abd6 87be ae46 0b3e 701d 3ebe
000003b0: d633 53be 11b2 4ebe 2ff9 d73e c5da d0be
000003c0: 935c b0be 093d 98be 4e20 b83e 044f 15be
000003d0: a759 8b3e de8e 643e 1bab abbd c6f5 b43e
000003e0: c249 9b3e f7a2 c1be de79 8c3e 0886 4f3d
000003f0: 5d6e 3cbe 065e c3be de14 a3be c44c f43d

net.2.weight f4 [128, 256]
-0.04188373 -0.043102622 0.038215652 -0.3077068 -0.25461978 -0.107065566 0.19647938 -0.6463914
-0.094809085 -0.14213507 -0.12014661 -0.026629053 -0.20300265 -0.28641313 0.05445288 0.04955806
-0.1250692 0.023964368 -0.01681064 0.07240412 0.024879925 0.04278764 -0.033247877 0.12605394
0.09815956 -0.15370779 0.005765848 0.023700546 -0.0060640816 -0.021033803 -0.14204502 0.08039841
0.037286863 -0.00021141768 -0.18764982 -0.35231543 0.020322537 0.22695203 -0.17698427 -0.08534888
0.06977358 0.052655786 0.05260752 -0.075714424 -0.12550944 -0.23114543 0.026572429 0.11796548
0.043508265 0.07794458 -0.0400494 -0.37371683 0.11260368 0.066964634 -0.13903077 -0.093521796
0.11577903 -0.011951543 -0.07603092 -0.006037347 0.07866359 -0.0235373 0.07730896 0.24924034
0.033130094 -0.17974482 -0.020672016 0.22621529 -0.040047787 -0.11219018 -0.053441375 -0.16394949
0.29321536 -0.021275923 -0.065959275 0.015510544 0.28200054 -0.058410686 0.15616858 -0.0071923286
-0.2511846 0.028985636 0.0048700646 0.05539525 0.17496558 -0.20713016 -0.03933675 -0.19857068
-0.03294394 0.048415333 -0.035917476 -0.14440815 0.02775973 0.046284437 -0.020528853 0.028823406
0.04850976 0.1188972 0.03268262 0.013840847 -0.26312953 0.008817606 -0.0021614507 -0.20325209
0.0063096434 0.17775841 -0.05345527 0.35886985 -0.042181782 2.182275e-05 0.041551236 -0.08108351
-0.058546014 0.10323881 0.3697969 0.02361529 -0.022575118 0.020070052 0.10652381 -0.083536156
0.12167498 0.06972162 0.015412293 0.06070202 0.03318075 0.0058332216 0.14472379 -0.11667578
-0.03517733 0.22704744 -0.003427878 -0.09576557 0.011673875 0.29530317 -0.0133020505 -0.015703535
0.050137043 -0.05412468 0.33239192 0.31592354 0.044593375 -0.10962151 -0.22653306 0.054766122
-0.025213692 -0.018359922 0.0067227185 0.120103836 -0.000559618 0.018095784 -0.058027424 0.2784842
0.06630131 0.02175583 -0.007549703 0.028553411 -0.23957327 0.054753102 0.03420323 0.17866077
0.02362366 0.04391732 0.0071518645 0.021521665 -0.020181246 -0.5785067 0.008792608 -0.021575904
-0.0038568825 0.14788087 0.34190506 -0.30441833 -0.1445454 -0.020490311 -0.00042316318 -0.055698443
-0.015676051 0.26981166 0.10208982 -0.035585564 0.03930349 -0.03538003 -0.16476099 0.1273912
-0.038154405 -0.21761705 -0.09664715 -0.21703106 -0.17961192 -0.09743626 -0.022298306 0.20974252
0.2717033 -0.0020741 -0.041860893 0.16952695 0.018643068 0.12157156 -0.04049953 0.07407972
-0.09297739 0.022248544 -0.09201886 -0.006809978 0.014715468 -0.054621086 0.016533598 -0.05402746
0.11607405 0.014663003 -0.30673894 0.10029663 -0.6958561 0.005982764 0.06218601 -0.27833542
-0.025821604 0.24277596 0.03099785 -0.04852707 -0.05898881 0.07792991 -0.02120477 0.2334921
0.088675976 -0.1614936 0.01860245 -0.077221245 0.051705096 0.12487803 -0.03669584 -0.02881534
-0.6809255 -0.0013388246 -0.13004945 -0.042756595 0.11012911 -0.12576243 0.29728517 -0.001508981
-0.060115688 -0.3232373 -0.24699457 0.016471945 -0.090000816 -0.14431968 -0.091602325 0.016305357
-0.0019150791 0.034036472 -0.06861085 0.18213364 -0.04252989 -0.0009994432 -0.019799806 0.058336843
00000000: 468e 2bbd 608c 30bd 0488 1c3d bf8b 9dbe
00000010: 865d 82be 3145 dbbd e431 493e e879 25bf
00000020: 442b c2bd db8b 11be 6d0f f6bd 2c25 dabc
00000030: eddf 4fbe bea4 92be fc09 5f3d 64fd 4a3d
00000040: 2412 00be ec50 c43c 78b6 89bc 9c48 943d
00000050: fcd0 cb3c 1842 2f3d ed2e 08bd 4914 013e
00000060: e107 c93d 9365 1dbe 70ef bc3b a627 c23c
00000070: 34b5 c6bb 154f acbc 4074 11be eca7 a43d
00000080: 1cba 183d 00b0 5db9 4627 40be b062 b4be
00000090: 737b a63c 1d66 683e 5d3b 35be 65cb aebd
000000a0: 73e5 8e3d 98ad 573d fc7a 573d 2a10 9bbd
000000b0: 8c85 00be 63b1 6cbe 6cae d93c e397 f13d
000000c0: b935 323d 68a1 9f3d d70a 24bd d057 bfbe
000000d0: c29c e63d c124 893d 155e 0ebe 5b88 bfbd
000000e0: 8e1d ed3d 68d0 43bc 19b6 9bbd f0d4 c5bb
000000f0: 601a a13d 4cd1 c0bc 2954 9e3d dc38 7f3e
00000100: 6cb3 073d 070f 38be 5c58 a9bc fba4 673e
00000110: 2609 24bd f7c3 e5bd 58e5 5abd 60e2 27be
00000120: 5320 963e d84a aebc a815 87bd f01f 7e3c
00000130: 6062 903e 0b40 6fbd a8ea 1f3e a0ad ebbb
00000140: 459b 80be 4973 ed3c 1095 9f3b 21e6 623d
00000150: 2d2a 333e ee19 54be 921f 21bd 1d56 4bbe
00000160: 3af0 06bd 284f 463d 341e 13bd bbdf 13be
00000170: 6068 e33c c094 3d3d 202c a8bc 101f ec3c
00000180: 2cb2 463d 6080 f33d 36de 053d b8c4 623c
00000190: eab8 86be b877 103c 20a7 0dbb 5121 50be
000001a0: 20c1 ce3b 4d06 363e eaf3 5abd cabd b73e
000001b0: cec6 2cbd 0010 b737 a131 2a3d 1c0f a6bd
000001c0: f2cd 6fbd df6e d33d 0556 bd3e da74 c13c
000001d0: 74ef b8bc f369 a43c 2829 da3d 0115 abbd
000001e0: bb30 f93d 35ca 8e3d d883 7c3c aea2 783d
000001f0: 8ae8 073d 9c24 bf3b 7932 143e b6f3 eebd
00000200: 1b16 10bd 207f 683e 40a6 60bb bd20 c4bd
00000210: c843 3f3c fa31 973e d8f0 59bc b3a4 80bc
00000220: 805c 4d3d d7b1 5dbd 462f aa3e bbc0 a13e
00000230: 8ba7 363d 3e81 e0bd 48f8 67be 7152 603d
00000240: f28c cebc 8c67 96bc 404a dc3b 00f9 f53d
00000250: 54b3 12ba 9c3d 943c 2aae 6dbd 7b95 8e3e
00000260: fbc8 873d 4839 b23c 8063 f7bb d8e8 e93c
00000270: b252 75be ca44 603d b018 0c3d d9f2 363e
00000280: 6886 c13c a6e2 333d 305a ea3b 344e b03c
00000290: 2453 a5bc 0419 14bf df0e 103c f3bf b0bc
000002a0: c0c3 7cbb 156e 173e 2e0e af3e b8dc 9bbe
000002b0: b603 14be 4cdb a7bc 00dc ddb9 0d24 64bd
000002c0: 106b 80bc c124 8a3e 7814 d13d 2bc2 11bd
000002d0: b2fc 203d a6ea 10bd 1bb7 28be d772 023e
000002e0: cb47 1cbd 01d7 5ebe f1ee c5bd 643d 5ebe
000002f0: 30ec 37be a98c c7bd f0aa b6bc bec6 563e
00000300: b21c 8b3e a0ed 07bb 5476 2bbd 7998 2d3e
00000310: 59b9 983c 83fa f83d d6e2 25bd 1cb7 973d
00000320: ee6a bebd 9442 b63c 6274 bcbd 3c26 dfbb
00000330: 2519 713c 5cba 5fbd 7871 873c e64b 5dbd
00000340: 3bb8 ed3d 183d 703c e30c 9dbe 5268 cd3d
00000350: a023 32bf 100b c43b c2b6 7e3d fb81 8ebe
00000360: d487 d3bc 439a 783e 34ef fd3c 52c4 46bd
00000370: 409e 71bd b799 9f3d a0b5 adbc 8e18 6f3e
00000380: c09b b53d 945e 25be 2a64 983c 2c26 9ebd
00000390: b9c8 533d 0dc0 ff3d 614e 16bd 260e ecbc
000003a0: 2251 2ebf 807b afba af2b 05be 8a21 2fbd
000003b0: 5f8b e13d dec7 00be c335 983e 00c9 c5ba
000003c0: de3b 76bd 5c7f a5be 25ec 7cbe 2cf0 863c
000003d0: 5952 b8bd 8ac8 13be 009a bbbd d092 853c
000003e0: 6403 fbba d469 0b3d d883 8cbd 3e81 3a3e
000003f0: d233 2ebd c0ff 82ba 3433 a2bc 9df2 6e3d

net.2.bias f4 [128]
0.011262021 -0.08455865 -0.024336558 -0.025117733 -0.0004844127 -0.010746175 -0.015279412 -0.026992932
-0.053104 -0.043198317 -0.01988607 -0.0009505078 0.020222759 -0.0050638467 0.022666566 0.047660712
0.006083379 0.012719698 0.0025371786 -0.042016484 0.016953945 0.017057464 -0.050865754 0.038106706
0.08482621 0.054954015 0.11938062 0.019601213 -0.010675829 -0.04524444 0.0016321889 0.02461176
0.04452543 0.031098273 0.07491017 -0.061225843 -0.062953845 0.016373172 0.009464745 -0.053752866
-0.005741911 -0.05842238 0.03406058 -0.059053816 -0.033334963 -0.052821413 0.026784569 -0.048393663
-0.029868608 -0.024433613 -0.062374312 0.015125391 0.020152554 -0.011190729 0.041264147 0.098160855
0.14097154 -0.054419454 -0.0362656 -0.045550928 -0.01620357 0.048124157 -0.06228561 0.047261704
0.04032772 0.0344011 0.044357546 0.07579752 0.0067203944 -0.040757272 -0.032676652 0.04715172
0.019969469 0.07341464 0.04663321 0.01697985 0.0036380962 0.009433843 -0.021339446 -0.04339553
-0.019516885 0.12233023 0.057550654 -0.04414196 -0.032469362 0.0030220307 -0.06136132 0.040687155
-0.045421742 0.047614545 0.05946415 -0.007016391 -0.0063965837 0.080332406 0.01482769 -0.054266743
0.11148406 -0.030853245 0.06573825 -0.022068977 0.054718193 0.17814283 0.019800074 0.05796805
-0.006244026 -0.083877295 0.059736848 0.101534866 -0.08395819 -0.055146262 0.056363616 0.07092402
-0.041221984 0.022384532 0.08479977 -0.011097041 -0.055511992 0.009068592 0.0012990696 -0.02021352
0.028261976 0.043480117 -0.04927878 -0.0031070018 0.015553594 0.040021226 -0.044480372 0.042654283
00000000: 5784 383c 162d adbd 765d c7bc b4c3 cdbc
00000010: c6f8 fdb9 ba10 30bc 8056 7abc 4820 ddbc
00000020: 9483 59bd b8f0 30bd 1de8 a2bc 802b 79ba
00000030: 33aa a53c a0ee a5bb 3caf b93c e137 433d
00000040: 1557 c73b 4866 503c cb46 263b 7a19 2cbd
00000050: 00e3 8a3c 18bc 8b3c 9c58 50bd c715 1c3d
00000060: 5db9 ad3d 7617 613d d47d f43d b992 a03c
00000070: ace9 2ebc 3c52 39bd 2cef d53a 9a9e c93c
00000080: 4c60 363d cec1 fe3c 816a 993d f3c7 7abd
00000090: f2ed 80bd 0821 863c 0512 1b3c f72b 5cbd
000000a0: a426 bcbb 4e4c 6fbd 1b83 0b3d 6ae2 71bd
000000b0: 3e8a 08bd 445b 58bd 506b db3c 6f38 46bd
000000c0: 03af f4bc 0029 c8bc 357c 7fbd 7dd0 773c
000000d0: f816 a53c 5259 37bc 9804 293d 8f08 c93d
000000e0: d85a 103e efe6 5ebd 3d8b 14bd 9c93 3abd
000000f0: 59bd 84bc d61d 453d 321f 7fbd 7d95 413d
00000100: ae2e 253d 2be8 0c3d 42b0 353d bb3b 9b3d
00000110: c136 dc3b 19f1 26bd f4d7 05bd 2922 413d
00000120: 0397 a33c 6a5a 963d 7702 3f3d 5419 8b3c
00000130: 206d 6e3b 6890 1a3c 10d0 aebc 83bf 31bd
00000140: e0e1 9fbc 4688 fa3d 3cba 6b3d 33ce 34bd
00000150: 98fe 04bd 430d 463b 0256 7bbd 93a7 263d
00000160: 260c 3abd 7807 433d ae90 733d c1e9 e5bb
00000170: 6f9a d1bb 5185 a43d d7ef 723c ce46 5ebd
00000180: c151 e43d f2bf fcbc c7a1 863d 00ca b4bc
00000190: 2f20 603d 136b 363e c433 a23c e86f 6d3d
000001a0: b09a ccbb dcc7 abbd a0ae 743d 83f1 cf3d
000001b0: 46f2 abbd 0ce1 61bd 89dd 663d 9d40 913d
000001c0: 62d8 28bd c45f b73c 80ab ad3d 5dd0 35bc
000001d0: 8b60 63bd 6f94 143c 8b45 aa3a d396 a5bc
000001e0: a985 e73c 3518 323d 8cd8 49bd d79e 4bbb
000001f0: 80d4 7e3c 4ced 233d 0d31 36bd 42b6 2e3d

net.4.weight f4 [3, 128]
0.17293033 -0.36305392 -0.04154834 0.28495204 -0.09226461 0.8045261 -0.03649091 -0.05518146
0.10023534 1.0758581 0.022932779 0.073315255 0.080872156 0.015483141 -0.021295287 0.14948551
0.0100498395 -0.024283938 -0.11374751 -0.039582107 -0.07335121 -0.0048679286 -0.42693236 -0.07504113
-0.15052694 -0.029312596 -0.4598315 -0.0552534 0.05865347 -0.06887087 0.09742284 -0.060837194
-0.462222 -0.062235415 0.057743575 0.03633386 0.26748216 0.06917656 -0.04396856 -0.027395004
-0.027101653 0.0751509 -0.078155585 -0.0015199557 -0.03491082 0.032501716 0.007595441 -0.04799517
0.032980293 0.010369852 -0.079470165 0.016804658 -0.068050966 -0.0039978223 0.007859715 0.039411057
-0.2661267 0.018914172 0.021759756 -0.030075338 -0.09577602 0.053381424 -0.025400454 0.058590934
-0.3855009 -0.024812555 0.22098255 0.14560966 -0.18833606 -0.061095014 0.02231273 -0.063287176
0.04271271 -0.3508137 0.18814087 0.07372362 -0.027155604 0.05137249 0.05864411 1.25593
-0.017444387 -0.32473198 0.0405316 0.06669004 -0.06980037 -0.004771431 0.03431648 0.07222374
-0.032295693 -0.037720185 -0.037899207 -0.0100973 0.08126005 -0.123875976 -0.03050935 -0.026770307
-0.39238852 -0.027672075 0.06582382 -0.05950744 -0.3377671 -0.4199157 0.0037717298 -0.05391274
0.019326046 0.5617272 -0.065864354 -0.02225267 0.12772547 -0.004756525 -0.020693272 0.018225517
0.07329685 -0.0339012 0.16622098 0.2043654 -0.08600135 -0.0351119 -0.056521654 0.024776494
-0.055522352 0.40839717 -0.07809745 0.076377206 0.055332728 0.0022347705 0.059992872 -0.026541078
-0.088264026 -1.5677291 -0.08210677 -0.35994953 -1.1854708 0.21421902 -0.01173877 0.032906655
0.4563669 -0.2855362 0.039025113 -0.038392175 0.0849045 0.00504487 0.01445894 -0.12804735
-0.061613914 -0.08001403 0.10600186 0.06357636 -0.020958655 -0.0101830475 -0.9374014 -0.02340603
-0.694052 -0.00129316 0.06058069 0.0130605 -0.009880232 0.0060711354 0.02478693 -0.08961632
-0.1647815 -0.02311288 -0.5230494 0.07464957 -0.9781999 0.005862996 0.04260061 -0.08962294
-0.092264615 -0.05535939 0.26101884 -0.08426117 -1.3524607 -0.0008226194 -0.34346667 -0.088694975
-0.0665089 -0.025853753 -0.06086141 -0.39779487 0.02779323 0.029043533 -0.033774283 0.15681475
-0.59323883 -0.06537921 -0.05782063 -0.07755189 -0.686349 0.017952735 -0.032344427 -0.008152125
-0.21247186 -0.10044957 -1.3167309 -0.2240816 -0.11734581 0.084699824 0.0052101016 -0.06684729
-0.012589644 0.23974802 -0.11562964 0.078603394 -0.028155707 0.05776172 -0.07933796 -0.5321559
-0.030147227 -0.2653453 -0.2807086 -0.08927445 -0.064909935 -0.019398853 -0.07136479 0.030919377
0.028529314 -0.085278496 -0.08822923 0.06634385 -0.044260122 -0.2291918 -0.055317927 0.043325078
-0.003823525 -0.24257743 -0.083379425 0.07184715 -1.2459409 0.1825497 -0.08086523 -0.071094334
-0.06010228 0.19734603 -0.022783868 -0.37481308 -1.2993317 -0.04432073 0.08654191 -0.20085381
0.020735912 -0.011819761 -0.923575 -0.00052755204 0.06169437 -0.025201721 -0.045084253 0.08285975
0.053299837 -0.27699357 0.08289578 -0.028089453 -0.04001979 -0.07107771 -0.011040344 -0.047706533
00000000: a614 313e 34e2 b9be 982e 2abd 3ce5 913e
00000010: 3af5 bcbd 6cf5 4d3f 7e77 15bd f405 62bd
00000020: 3048 cd3d b8b5 893f 86dd bb3c 4f26 963d
00000030: 4da0 a53d 00ad 7d3c 7473 aebc bb12 193e
00000040: 15a8 243c 1cef c6bc 74f4 e8bd d920 22bd
00000050: 2939 96bd 2583 9fbb e196 dabe 2aaf 99bd
00000060: bc23 1abe f820 f0bc 096f ebbe 6451 62bd
00000070: 9f3e 703d 2c0c 8dbd a085 c73d 6c30 79bd
00000080: 5da8 ecbe 90ea 7ebd 8784 6c3d d0d2 143d
00000090: 6cf3 883e 71ac 8d3d 6018 34bd 7d6b e0bc
000000a0: 4904 debc b7e8 993d 0910 a0bd 4039 c7ba
000000b0: a6fe 0ebd 8520 053d 2de3 f83b 9596 44bd
000000c0: 5816 073d 50e6 293c 41c1 a2bd eca9 893c
000000d0: 4e5e 8bbd 2a00 83bb 09c6 003c 7d6d 213d
000000e0: c241 88be e5f1 9a3c 8441 b23c 8e60 f6bc
000000f0: 3826 c4bd 7ba6 5a3d 9d14 d0bc 0cfd 6f3d
00000100: 6060 c5be b343 cbbc 4049 623e b31a 153e
00000110: 2bdb 40be c43e 7abd 30c9 b63c b59c 81bd
00000120: 86f3 2e3d da9d b3be 00a8 403e 69fc 963d
00000130: 6e75 debc f66b 523d ce34 703d 50c2 a03f
00000140: 88e7 8ebc 4543 a6be 7704 263d ca94 883d
00000150: 7ff3 8ebd aa59 9cbb 708f 0c3d 0aea 933d
00000160: 7d48 04bd 7b80 1abd 333c 1bbd 256f 25bc
00000170: ab6b a63d b0b2 fdbd bfee f9bc 674d dbbc
00000180: 26e7 c8be 8cb0 e2bc a4ce 863d 13be 73bd
00000190: cfef acbe 31ff d6be 202f 773b 9bd3 5cbd
000001a0: a851 9e3c 5bcd 0f3f e4e3 86bd 3b4b b6bc
000001b0: 77ca 023e a0dc 9bbb f084 a9bc ae4d 953c
000001c0: a91c 963d fcdb 0abd d535 2a3e 2a45 513e
000001d0: 7a21 b0bd 7fd1 0fbd 4083 67bd 13f8 ca3c
000001e0: 686b 63bd 6f19 d13e 8ef1 9fbd a76b 9c3d
000001f0: 92a4 623d 3a75 123b 16bb 753d ad6c d9bc
00000200: c5c3 b4bd 59ab c8bf 9827 a8bd 4e4b b8be
00000210: 82bd 97bf 3b5c 5b3e f853 40bc 21c9 063d
00000220: eca8 e93e cd31 92be ccd8 1f3d 1d41 1dbd
00000230: 69e2 ad3d 704f a53b 31e5 6c3c d81e 03be
00000240: df5e 7cbd 65de a3bd 8117 d93d 5334 823d
00000250: 7cb1 abbc ccd6 26bc 8af9 6fbf 01be bfbc
00000260: 64ad 31bf 407f a9ba 7523 783d b5fb 553c
00000270: b2e0 21bc 60f0 c63b f60d cb3c c388 b7bd
00000280: 7bbc 28be 3957 bdbc 91e6 05bf e0e1 983d
00000290: 4f6b 7abf 601e c03b fa7d 2e3d 3b8c b7bd
000002a0: 3bf5 bcbd 87c0 62bd 43a4 853e 1f91 acbd
000002b0: 6f1d adbf 0ea5 57ba ddda afbe b6a5 b5bd
000002c0: d135 88bd 40cb d3bc d049 79bd c5ab cbbe
000002d0: a1ae e33c b4ec ed3c e756 0abd 0c94 203e
000002e0: 80de 17bf 89e5 85bd 53d5 6cbd 86d3 9ebd
000002f0: 91b4 2fbf 9d11 933c 977b 04bd 7e90 05bc
00000300: 3992 59be 81b8 cdbd a38a a8bf a675 65be
00000310: 0053 f0bd 1a77 ad3d 80b9 aa3b 3be7 88bd
00000320: cb44 4ebc 8180 753e 3ccf ecbd d1fa a03d
00000330: cca6 e6bc 8e97 6c3d f17b a2bd 5e3b 08bf
00000340: 51f7 f6bc 57db 87be 0ab9 8fbe 86d5 b6bd
00000350: 80ef 84bd 58ea 9ebc b427 92bd a24a fd3c
00000360: 4fb6 e93c 7ea6 aebd 87b1 b4bd 49df 873d
00000370: 1a4a 35bd 41b1 6abe 0d95 62bd a375 313d
00000380: 1b94 7abb 3866 78be d5c2 aabd 9924 933d
00000390: fe7a 9fbf 4fee 3a3e ab9c a5bd e899 91bd
000003a0: cf2d 76bd 1415 4a3e 3ca5 babc 80e7 bfbe
000003b0: 8050 a6bf a789 35bd e33c b13d 9fac 4dbe
000003c0: 5cde a93c aca7 41bc 696f 6cbf 6b4b 0aba
000003d0: 3cb3 7c3d d773 cebc 44aa 38bd 5fb2 a93d
000003e0: ee50 5a3d 1ad2 8dbe 43c5 a93d da1b e6bc
000003f0: cbeb 23bd 3191 91bd 8fe2 34bc ed67 43bd

net.4.bias f4 [3]
-0.08018697 -0.086443745 0.003659948
00000000: 1139 a4bd 6b09 b1bd bddb 6f3b
