ddpg_office_critic.pth (torch, 145142 bytes, 5 tensors)

net.0.weight f4 [256, 9]
00000000: 94cb f4be 9593 6d3f 8cec 583e 0eab c33d
00000010: 31a5 143f fce6 86be 4ed0 1c3f 04d6 27bf
00000020: 2469 a2bd 5501 7abe c343 d9bd 72bf afbe
00000030: 9914 c4bc a145 cdbc a34f 2abe 9128 dd3d
00000040: f4ad 473e cd1c 0cbe f2db 383e 8753 9b3e
00000050: a86b 34bd 5686 98be 604f 64bd 1865 34bd
00000060: 38dd 6cbd e868 1b3e ba35 123e 2d1e c33e
00000070: 2918 7cbe 6d4a 8cbe 4123 62bd b23c 7bbe
00000080: af9a b23e 3aeb b93e c88a aa3e 6be7 973d
00000090: 33d1 353e 000b 6fbe a997 983e 8319 ecbd
000000a0: fda7 fe3e 049f 6b3c 8277 4f3d e5fe 2c3f
000000b0: 13ed bd3e 1c23 853e 7fee debe 2ad2 9ebe
000000c0: 3461 a23e 47d6 e6be 764d 8d3e 7812 bc3d
000000d0: 4e62 d93d fee0 3fbe 3760 9cbe e217 5a3e
000000e0: 3819 b6be 84c5 4cbe e377 ad3c 8fcc 6fbe
000000f0: 666b 48be a3f1 f7bd 2fbb bb3d 42ec 743e
00000100: 3c37 9a3d f334 a4bd 138a 023e 6b40 b2be
00000110: 927d d1be 56be 24be 426d c73c 347d 563e
00000120: 5f26 e43c ab98 ca3c 802c 57be c48d 863e
00000130: 3b2d a7be 41dd 84be 6d95 c9bd 163f 653d
00000140: cbfa 483e 1477 c0be 7782 76bd 3fa7 99be
00000150: 6cb3 83be 3d38 07bf dcf8 883c 605c 35be
00000160: cd5e b33b 08c5 8f3e f074 14bf 80bd 0abf
00000170: ef0b cbbe 8f58 51be 398f a2bf 5ff0 483e
00000180: 7824 4bbf dddf 4a3e f069 b8be 992d ac3e
00000190: 16ef 24be 7f4b 20bf 2e60 0e3f 31b7 5dbf
000001a0: 7e6d cabe 01b8 0c3d d690 41be 1007 3f3f
000001b0: 4a89 743d e7c0 b1bf 2e22 0a3c 42b3 6e3e
000001c0: 1148 4bbf 8b65 be3e 5031 afbe 8a43 623e
000001d0: 25f1 dbbc be66 f73e fd15 09bf 4c25 32bd
000001e0: 3c27 833e cf55 b2be b8ee cf3e b479 633e
000001f0: 2b7c 9fbb 481c 5abe b01d 3c3d 28b5 133f
00000200: f6da 87be 7407 8fbe d281 96be f063 d1be
00000210: 837f 683e 2d88 3e3e 30e6 e1bb bad6 fb3e
00000220: a6d5 26bf 3cc4 9c3e f3ec 0c3e ec85 0abd
00000230: dca1 c53e 8238 0b3e d8d7 3bbe 01dd 183e
00000240: eef7 18be fe70 78bc e7e1 a2bc 757d 10bf
00000250: 38b7 0abf 5f4a d3bc a866 a8be f682 713e
00000260: 8e0e 06be 793f 563e c863 04bf 1bbc 473e
00000270: c5ec 2c3e d444 90be c9e3 b23e 25ef 5cbe
00000280: b74c 89be e6d7 acbe 92ff 9a3e 61d4 8b3e
00000290: 6b6a b23d 880d a0be 43d6 533e 61eb 92be
000002a0: a764 f73d 9a48 bebd f891 fd3d 98e4 83ba
000002b0: dfa2 4ebe d5c3 7dbe 7654 96be f7d4 b2be
000002c0: 8e6e 33be 3ffe 7cbe 1ff8 f43d d72d 8cbd
000002d0: 304f 383e 8fd4 dfbe 30df 31bf fe93 b73e
000002e0: 2641 3f3f ca1d aa3d 8717 d73e c021 373f
000002f0: c161 98be 25da ae3e 6552 31bf e276 5f3e
00000300: 4c95 f23d a4fe 213f 0792 92be 0765 2bbf
00000310: 0534 133f 4d1f b4bd 981c 643e cc2c aebe
00000320: ec61 ce3d f588 02be fa07 21be 0a5c d2be
00000330: 9f06 1ebe 72e5 633c 9dac cb3e 73d3 fbba
00000340: 7719 aa3d a53a 253d a317 3c3d f27c 493e
00000350: 9fc4 54be 41d6 11be afd0 e5bb 6b2c 6f3e
00000360: f562 2a3d 9033 22bf 4439 913e 973b d4bc
00000370: 2a94 863e 6dd8 2d3e 904d a9bd f8c0 89be
00000380: d053 eb3e 3e05 dcbe 7c54 0fbf 1591 16bf
00000390: 11ea b1bd 518d 85be 5430 8abe 2696 97be
000003a0: 7963 8f3e c7ef 70be d339 183c 82a9 cfbe
000003b0: 70ea 47be aebc 423e 6c90 7dbb 362f fe3e
000003c0: 0729 39be 7e09 9a3e fb62 11be d019 2cbe
000003d0: 4394 043d 750b 1b3f d390 1e3e 150b 813f
000003e0: dd80 21be 2e61 c6be a456 bcbe e74a 97bc
000003f0: 6282 f83e 0097 1dbe 1c5f 9abd 6b87 453e
-0.47811568 0.9280332 0.21183985 0.095541105 0.5806456 -0.26348102 0.6125535 -0.65560937
-0.0793021 -0.2441457 -0.10608628 -0.3432575 -0.023935603 -0.025057616 -0.16631941 0.10798753
0.19499952 -0.13682862 0.18052652 0.30337164 -0.04404798 -0.2978999 -0.05573976 -0.044041723
-0.05782816 0.15176737 0.14278308 0.3810896 -0.24618591 -0.27400532 -0.055209402 -0.24534872
0.3488364 0.36312276 0.33309007 0.07417186 0.17755584 -0.2334404 0.29803208 -0.115283035
0.4973754 0.014381174 0.05065108 0.6757644 0.37094936 0.2600335 -0.43541333 -0.31019717
0.31714785 -0.45085356 0.2759816 0.0918321 0.10614453 -0.18738171 -0.30542156 0.21298173
-0.35566115 -0.19997221 0.02117533 -0.23417877 -0.19572219 -0.121066354 0.09166562 0.2391825
0.07530066 -0.08017912 0.12747984 -0.34814772 -0.40916115 -0.16088232 0.02434409 0.20946199
0.027850328 0.024731 -0.21013069 0.26280034 -0.32651696 -0.25950053 -0.09842954 0.055968367
0.1962692 -0.3759085 -0.060183015 -0.3001041 -0.25722826 -0.5282019 0.016720228 -0.1771102
0.0054739476 0.2808001 -0.5799093 -0.54195404 -0.39657542 -0.20443939 -1.2699958 0.19622944
-0.7935252 0.1981196 -0.36018324 0.33628538 -0.16106829 -0.626152 0.5561551 -0.8660765
-0.3953666 0.034355167 -0.18902907 0.7462015 0.05970124 -1.3886994 0.008431001 0.23310569
-0.7940684 0.37186846 -0.3421731 0.22096077 -0.026848385 0.48320574 -0.53549176 -0.0434926
0.2561587 -0.34831092 0.40611815 0.22214395 -0.004867097 -0.21299851 0.04592675 0.576983
-0.2653424 -0.27935374 -0.2939592 -0.4089656 0.22704892 0.18606634 -0.0068938956 0.4918726
-0.6516975 0.30618465 0.13762264 -0.033819124 0.3860005 0.13595775 -0.18344057 0.14928056
-0.14938328 -0.015163658 -0.01988311 -0.5644143 -0.5418582 -0.025792299 -0.3289082 0.23585114
-0.1309149 0.2092265 -0.51714754 0.1950535 0.16887195 -0.28177512 0.3493941 -0.21575601
-0.2681634 -0.33758467 0.3027311 0.2731047 0.08711704 -0.31260324 0.20687203 -0.28695205
0.12079745 -0.092911914 0.12381357 -0.0010062633 -0.20179318 -0.24781735 -0.29361314 -0.34928104
-0.17522642 -0.24706362 0.11961388 -0.06844681 0.17998958 -0.43716857 -0.6948118 0.35855097
0.74708784 0.08306463 0.42010137 0.71535873 -0.2976208 0.34150806 -0.6926635 0.21822694
0.11844882 0.63279176 -0.28627035 -0.6695103 0.5750125 -0.08795033 0.22276533 -0.34018552
0.10077271 -0.12747557 -0.15725699 -0.41085845 -0.15432213 0.0139096845 0.3978013 -0.0019212797
0.08305638 0.04033913 0.04592098 0.19676569 -0.2077813 -0.14241888 -0.0070134024 0.23356788
0.04159828 -0.6335993 0.28364003 -0.02590732 0.26284915 0.16977091 -0.08266747 -0.26905036
0.4596238 -0.4297275 -0.5598829 -0.5881513 -0.08687223 -0.26084378 -0.26989996 -0.29606742
0.2800558 -0.23528968 0.00929113 -0.40559012 -0.19523025 0.19017288 -0.0038690818 0.49645394
-0.18082057 0.30085367 -0.14197914 -0.16806722 0.032367956 0.6056436 0.15484934 1.0081507
-0.15771814 -0.38746017 -0.36784852 -0.018468333 0.48536974 -0.15389633 -0.07537672 0.19289939

net.0.bias f4 [256]
00000000: e505 1abe 9d0a 3dbe 9f76 93be edfb ab3e
00000010: 325c c93e 56f7 aa3e 2fbf 1cbe a721 10be
00000020: 5c27 88be ec65 dbbe 627f ecbd 6291 d43b
00000030: c6df 1bbe 8667 333e e778 e4bd 9611 c43e
00000040: a22f 8cbe 35dd f83e 99e6 66be e3d7 66bc
00000050: 46a0 e53d c34b 40bd 256c 143e ebba c2be
00000060: fd7c 4b3d 0353 b8bd a6e5 093f 12aa f7be
00000070: f0c8 813e 87f6 88be b415 7f3e 6c68 a13e
00000080: 651c 68be d42f 883d c222 ad3e a2c1 c43e
00000090: 79fd 9cbe 9858 c73c 3ac2 81be b424 60be
000000a0: 40f0 9bbe bf16 aa3d 3818 76be 6a50 8bbe
000000b0: 04a0 93be b52b cabe 08b6 f93e a603 9d3d
000000c0: c57f 3cbe f595 393e 659e 27be 53d9 a93d
000000d0: 4298 b53e 2705 803e c509 973e 6039 163e
000000e0: d201 dbbe 1dff b1be efb0 163f 1d03 9abe
000000f0: d89e 163e 675a 61bd bd36 febe a260 c9bd
00000100: 0f4a 80be 8688 8fbd 16e8 75be 978a 8d3e
00000110: 81b2 56bd 4a68 fe3e 1a07 733e 44a8 fc3d
00000120: 2597 b5bd dfca 8938 a013 57be eac5 d03e
00000130: 11e0 f5be ea28 a7be d720 183f 3a2e bb3e
00000140: f683 043f 562b 0a3f 731f fe3e 7cf2 a8bd
00000150: 502e d93d da51 f93e 028d a0be 3f27 093e
00000160: 0276 a7be ad4a 04be 93fc fbbe 5033 35bd
00000170: c385 a3be 231b b13e cc99 5f3e d3e4 b5be
00000180: 77d2 37be 1248 4c3d fa03 4abe 97ee ac3e
00000190: 3c81 82be 865c e83e 2d16 803c 04b0 d23e
000001a0: 734d d1be 4c2c 2fbe 98b2 e93e 86ce bd3c
000001b0: 790a 25be b8ef 71be 1ead 173d 01b0 aabe
000001c0: 3e74 44be fae6 6a3a d984 35be abee c63e
000001d0: 370c 50be 0218 bf3e c80a 0fbe 8969 b0be
000001e0: 387b 513e a345 72be 8ed3 2d3e ecd4 ee3d
000001f0: 2284 483e 7ab7 0bbe 80ba b8be 6ab8 ba3e
00000200: 6f42 d9bd 3651 173e a188 1abe bbca 7e3e
00000210: f0bb 9bbe 5080 3e3e 7ff4 003f 0182 983e
00000220: 92ec 1e3d b81f 5fbd 2cbd cebe 8a2a 46be
00000230: fcc1 96be 2902 cf3e 03c8 703e 6c5d 5b3e
00000240: a371 60be f4dc a0be 9271 313e 1898 ea3e
00000250: 55e8 a1be f658 253e ee7b c7bd 361e 45be
00000260: 05cf f1bd 5f76 92be c033 b1be a3ef be3d
00000270: be7e fdbd caa0 4f3e 6b7b a53d 7861 a53e
00000280: a6a0 88be 5027 cdbe 6fef 013f 951d 703e
00000290: 9be5 75be 43dd 083f a895 403e 1013 d83c
000002a0: a001 c7be 3c43 813e 405f b9bb 0a8f 5dbe
000002b0: 28f0 8cbe 5695 b53e 83bd 343c f01b 6a3c
000002c0: 0d86 913d 2e77 933e 54f4 b6bd 0a4c 093f
000002d0: e9cf e53e 5cd6 0dbe 2242 8a3e ce79 34be
000002e0: 7640 50be 03c1 0b3f 0cd1 a1be 049c b3be
000002f0: 3eb4 f23d da87 76be ba76 bebe 8a20 183e
00000300: 84ee 933c f5ca a8be b2b4 b8be fc97 12bd
00000310: 29e1 cbbe 7ebb d83e c394 803e b54d 3fbe
00000320: 5dfc 593e 742a 3abe 20d7 9d3e 5aa5 8ebe
00000330: 54cf a83d 939d 84be 3e3f 18be 7cd9 f23e
00000340: 84fd 9cbe bbe7 ed3e 1cbf f1bd 48e0 3abe
00000350: 80be abbd 4ad0 aabe 4017 a03c 0419 1abe
00000360: a705 9b3e 7993 993e 819e c4be a2bf 2dbd
00000370: b1b5 24be 1a27 9abe 9c1d a63e 0fd8 713e
00000380: a233 07bd fc39 6f3e 961f aa3c c731 96be
00000390: 80f1 f9bd 9673 bb3e 9cc0 a5bd 37c2 fe3d
000003a0: 437a 133e 6be8 21be 625d 76bd 0685 88be
000003b0: 0690 9abe b7e5 eb3e 014a 9ebe ccfb e0bd
000003c0: 7123 033f 6a22 8bbe de39 bebe 24fe 60be
000003d0: 1d08 ea3e 978e 0c3f 276c 9ebe e847 c03d
000003e0: 4859 62be 60cd f2bd 532b 8abe dd95 003e
000003f0: 8687 c23d 4753 a7be 0729 21bd a9dc d23e
-0.15041311 -0.1846108 -0.28801438 0.33590642 0.39328152 0.33391827 -0.15307306 -0.14075337
-0.2659253 -0.42851198 -0.11547734 0.0064870575 -0.15222082 0.1751996 -0.11155873 0.38294667
-0.2738009 0.48606268 -0.22548904 -0.014089557 0.1121221 -0.046947252 0.14494379 -0.38033232
0.049679745 -0.09000208 0.5386604 -0.4837194 0.25348616 -0.26750585 0.24910623 0.3152498
-0.22667082 0.066497475 0.3381558 0.3842898 -0.30662134 0.024334237 -0.25343496 -0.21889001
-0.30456734 0.0830512 -0.24032676 -0.2720979 -0.2883302 -0.3948647 0.4877169 0.076667115
-0.18408115 0.1812361 -0.16369016 0.082934044 0.35467726 0.2500393 0.2949964 0.14670324
-0.42774826 -0.34764948 0.5886373 -0.300805 0.14709032 -0.055017855 -0.49651137 -0.09832884
-0.25056502 -0.07008462 -0.24014315 0.27644798 -0.05241633 0.4968894 0.23733178 0.123367816
-0.08866719 6.570457e-05 -0.2100358 0.40775996 -0.48022512 -0.32648402 0.5942511 0.36558706
0.51763856 0.53972375 0.4963337 -0.08249375 0.106045365 0.4869526 -0.3135758 0.13393877
-0.3270722 -0.12919112 -0.49216136 -0.04423839 -0.3193799 0.34591016 0.21836013 -0.35526142
-0.1795138 0.04987342 -0.1972808 0.3377578 -0.25489223 0.4538309 0.015635574 0.41149914
-0.40879402 -0.17106742 0.4564407 0.023169767 -0.16117276 -0.23626602 0.03703033 -0.33337405
-0.19184968 0.000896081 -0.17726459 0.38853964 -0.2031716 0.37323004 -0.13968956 -0.34455517
0.2045716 -0.23659377 0.16975233 0.116617054 0.19581655 -0.1364421 -0.36079788 0.36468822
-0.10608374 0.14777073 -0.15091182 0.24882023 -0.30416822 0.18603635 0.5037307 0.29786685
0.03879983 -0.05447361 -0.40378702 -0.19352165 -0.29444873 0.40431336 0.23513798 0.21422356
-0.21918349 -0.31418574 0.1732848 0.45819163 -0.31622568 0.16147217 -0.097404346 -0.19249806
-0.11807064 -0.28605935 -0.34609795 0.09323051 -0.1237769 0.2027618 0.08080181 0.32300925
-0.26685065 -0.40069056 0.5075597 0.23448785 -0.24013369 0.5346262 0.1880709 0.026376277
-0.38868427 0.25246608 -0.0056571066 -0.21636596 -0.27526975 0.35465497 0.011031511 0.014288887
0.07105646 0.28801864 -0.08933321 0.5363165 0.44885185 -0.13851303 0.2700358 -0.1762459
-0.2033709 0.5459139 -0.31604803 -0.35079968 0.11850785 -0.24075261 -0.37199956 0.14856163
0.018058069 -0.32967344 -0.3607536 -0.035789475 -0.3982022 0.42330545 0.25113496 -0.18681987
0.21287675 -0.18180257 0.3082819 -0.27860528 0.0824267 -0.2590147 -0.14867875 0.47431552
-0.30662167 0.4646586 -0.11804029 -0.18249619 -0.08385944 -0.33362037 0.019542336 -0.15048605
0.3027775 0.29995325 -0.3840218 -0.042419083 -0.16084935 -0.30107957 0.32444465 0.23617576
-0.033008225 0.23361963 0.020767014 -0.29334852 -0.122042656 0.36611623 -0.08093378 0.12439387
0.14402108 -0.15811317 -0.06014765 -0.2666399 -0.30188006 0.46073696 -0.30915835 -0.109855264
0.51225954 -0.27174693 -0.37153524 -0.21971947 0.45709315 0.54905075 -0.3094189 0.09388715
-0.2210437 -0.118555784 -0.2698618 0.12557168 0.09498505 -0.32680723 -0.039345767 0.41183975

net.2.weight f4 [128, 256]
00000000: 475f 8abd 0887 a6bc 2eac 43bd c72e a9bc
00000010: c176 ae3c 181f 853c 4059 953b b874 193d
00000020: b0ae 9d3c e85f 563d e688 fa3c 8c97 78bd
00000030: 3d90 d53c bd3a eebc 907e 993b 0bb9 033d
00000040: b4a0 89bc c8c3 e6bc cad1 1dbd a864 4bbd
00000050: 1df8 aebc 1c3c 9c3c 0472 6c3d 60e5 b5bb
00000060: d3b7 67bd 9a9e 22bd 48f9 16bd f680 e2bc
00000070: 8fa8 7bbd b4fb 0ebd 0048 fe3b 18f6 4dbd
00000080: d48d 3d3d 6f47 a3bd 986b 1c3c a11a 32bd
00000090: d021 0a3c 0219 6bbd 70e4 77bc 20fb b3bc
000000a0: e0a5 223d 64b0 21bd 0609 6dbd e03f 2a3b
000000b0: 4ec1 78bd f043 423c b563 093d 2272 41bd
000000c0: f6e2 07bd cca0 b8bc 1e49 2cbd 8b24 913b
000000d0: eeb6 9abc d653 72bc 5db3 1ebd 8c90 783d
000000e0: 14e7 c5bc 3ac3 54bd 24e4 2b3c b26a 1bbd
000000f0: 5564 24bd f2ec 2ebd 077c 5c3d c8d2 d63c
00000100: c67a 5b3d ac1f 36bd f864 bdbc dcde 073c
00000110: f476 523d 7de1 a1bd 16c6 69bd ffe8 f03c
00000120: 5012 2ebc bcd1 74bd 00c8 033b b472 31bd
00000130: d450 ff3c 6026 71bc 1a45 83bc 9abf 75bd
00000140: e6e9 b4bd 5ace 88bd 0a3d d43c d481 94bc
00000150: feba 05bd 39c7 9abd 9424 7c3d e30a 32bd
00000160: b6aa 6b3d c018 0e3b e249 1a3d 3a59 593c
00000170: 9f23 ea3c 32bc ed3c ae7c 733d 4a9b 593d
00000180: 9a99 c93c c22b 033d 9080 d33b 5ead 02bd
00000190: f221 84bd 4003 32bd 94b7 4ebd 03e1 a3bd
000001a0: 70af e7bb e820 bcba 04b6 bf3c 7611 253d
000001b0: 6a12 30bd 327b 443d a2a1 2d3d 8e02 193d
000001c0: 71d5 9e3c 30f9 553c a08d 02bd 4b0f 93bb
000001d0: 8600 17bd 2beb 0cbd 3866 0cbd 0e84 613d
000001e0: d515 a0bc 1255 55bd 8687 063d 0bf8 813c
000001f0: 1400 41bd 0011 0b3b 4084 5e3d 439a b6bd
00000200: fc1e 28bd d9ee 583a 049b 6b3d f6dd 91bd
00000210: 907d 873c 403a b13a fd8c 233c 4063 eaba
00000220: 70f4 84bd c09b 883c e03c ec3b 2090 f6bb
00000230: d08f f53b 0931 b03c bd71 8ebd 56e6 73bd
00000240: 7844 1c3d 1e31 183d 12ac 8fbc 7719 91bd
00000250: b6ad 0cbd 1006 973c 542d 5b3d f0b9 4bbc
00000260: 92a0 3ebd 4488 95bc 584c e9bc 9854 45bc
00000270: bcd1 3abd b10a 5abd 44fe 08bd f8fd 8eba
00000280: ea79 11bd 7a02 1e3d 6446 f83c 202a 2d3c
00000290: f870 623d 04d8 693b d1d3 76bb 363f 12bd
000002a0: 66a3 243d 7241 19bb 00af 023c 6293 0cbd
000002b0: c4a5 9dbd dfc1 b7bd 8053 7dba 54aa a1bc
000002c0: f5f1 a4bd 7bf3 25bd b4b2 e83c 0f99 f8bc
000002d0: 1fae aabd 3081 cbbc 0c01 6dbc bc97 12bd
000002e0: 3c1d 20bd 5cd5 01bd 428d 0d3d 7e7d 423d
000002f0: 9037 4a3d e0dd 5f3b 90a1 263d ecbf 673d
00000300: 98b3 3e3c 94a4 83bd 125f 643d def3 3dbd
00000310: 1ff2 a4bc 33db 41bd a476 4cbd 8059 d8ba
00000320: 150b ffbc 9767 4ebd cc53 b0bc 00a6 c03c
00000330: e362 aebd 0824 99bc 2a9d 4c3d c8b2 8ebd
00000340: 9e60 613d ea14 2cbd f479 10bd 08ee fe3c
00000350: d061 9d3b eec0 74bd c0e5 4d3b 8cdc 283d
00000360: 6fa6 27bd 35dd 2f3c b896 6cbc 60e3 643d
00000370: 286c ca3c f456 40bd 59ad 1bbc 2fc5 ce3c
00000380: 5016 333c 80be 1bbc f6bf 0f3c 3c0f 7e3d
00000390: bc36 fbbc cb8d 87bd 88f5 a83c fed1 d4bc
000003a0: d0f4 72bd 8088 29ba d0de 0cbd ee24 12bd
000003b0: 7cf3 a3bc 695d 9cbd 0691 1bbd 4c5c d1bc
000003c0: f891 6cbd 24d3 843c 2451 103d c02d d7bb
000003d0: 3ba2 8dbd f928 6abd 5cff f2bc e675 d8bb
000003e0: e3cd 2bbd 7e23 46bd 14cf 903c 00f6 1d3c
000003f0: 7427 2b3c 401e 7cbc 9b6a b23b 59b8 21bd
-0.06756454 -0.02032806 -0.047771625 -0.020652188 0.02129686 0.016250178 0.0045577586 0.037464827
0.019248337 0.052337557 0.030582856 -0.0606914 0.026069755 -0.029080743 0.004684277 0.032158893
-0.016800262 -0.028169528 -0.03853015 -0.04965654 -0.021358544 0.019071631 0.05772592 -0.0055510253
-0.056571793 -0.039702035 -0.036858827 -0.027649384 -0.061440047 -0.03490801 0.007760048 -0.05028352
0.046277836 -0.07972609 0.009547137 -0.043482427 0.008430913 -0.057396896 -0.015130147 -0.021970332
0.039708972 -0.03947486 -0.057869934 0.0025978014 -0.060731225 0.011857018 0.033542354 -0.047227986
-0.03317543 -0.022537611 -0.042061917 0.004429405 -0.018886056 -0.014790496 -0.038745273 0.060684726
-0.024158038 -0.051943995 0.010491405 -0.03794355 -0.040134747 -0.042706437 0.05382922 0.026223555
0.053583883 -0.0444638 -0.023119435 0.00829288 0.051382974 -0.079043366 -0.057073675 0.029407976
-0.010624483 -0.05977033 0.0020108223 -0.04332228 0.031166472 -0.014718622 -0.016024161 -0.05999718
-0.08833675 -0.066799834 0.025908012 -0.018128313 -0.032649033 -0.0755753 0.06155832 -0.043467414
0.05753585 0.0021682233 0.037668116 0.013265902 0.028581439 0.029020403 0.059445076 0.05312661
0.024609376 0.032024153 0.006454535 -0.031903617 -0.06451787 -0.04346013 -0.050468042 -0.08001902
-0.0070704743 -0.0014353069 0.023402222 0.040299855 -0.04298631 0.04796905 0.042390473 0.037355952
0.019388886 0.013059899 -0.031873345 -0.004487907 -0.036865734 -0.03440396 -0.03427717 0.055057578
-0.01954166 -0.052083082 0.03284409 0.015865346 -0.047119215 0.002121985 0.054325342 -0.08916142
-0.041045174 0.0008275337 0.05752088 -0.07122414 0.016539365 0.0013521388 0.009982345 -0.0017882362
-0.06491935 0.01667583 0.0072094053 -0.0075245053 0.0074939504 0.021507757 -0.069552876 -0.059545837
0.038151234 0.037156217 -0.017538104 -0.07084935 -0.03434535 0.018435508 0.053510025 -0.012434468
-0.04653985 -0.018253453 -0.028478786 -0.0120440945 -0.045610175 -0.053232852 -0.03344561 -0.0010909429
-0.035516657 0.03857658 0.030307002 0.010569125 0.055283517 0.0035681734 -0.0037662874 -0.035704814
0.04019489 -0.0023384956 0.007976294 -0.034320243 -0.07697633 -0.08972525 -0.00096636266 -0.01973454
-0.08053962 -0.040515404 0.028405525 -0.030346422 -0.08333992 -0.024841875 -0.014465582 -0.035789236
-0.03909038 -0.031697616 0.034558542 0.04748296 0.049369395 0.0034159347 0.04068142 0.056579515
0.011639498 -0.06427875 0.05575473 -0.046375148 -0.020134984 -0.047328185 -0.049917832 -0.0016506165
-0.031133214 -0.05039176 -0.021524332 0.023516655 -0.08514955 -0.018693939 0.04995457 -0.069676936
0.055023782 -0.042012133 -0.035272554 0.031119362 0.00480292 -0.059754305 0.003141746 0.041225955
-0.040930208 0.010733892 -0.014440231 0.055880904 0.024709776 -0.046957925 -0.0095017785 0.025240509
0.010930613 -0.009505868 0.008773794 0.062026247 -0.030665748 -0.06618842 0.02062489 -0.025979038
-0.059315503 -0.00064671785 -0.034392178 -0.03567975 -0.020013563 -0.07635004 -0.037980102 -0.025556706
-0.057756394 0.016213961 0.03523363 -0.006566733 -0.06915709 -0.05716798 -0.02966278 -0.0066058515
-0.041944396 -0.04837369 0.017676868 0.0096411705 0.010446418 -0.015388072 0.0054448373 -0.03948245

net.2.bias f4 [128]
00000000: 1472 9cbd c068 e2bc 51cd 333d c96a b4bd
00000010: 1837 903c 5ea0 15bd 326c ca3e 291f 883b
00000020: 6b52 23bc 85af 303d ceea 58bd aa2e 16bd
00000030: b059 ba3e f838 093c 56cf bd3e 86a6 c03e
00000040: bf47 d53e cdf9 c03e 5173 24bd e6f9 db3e
00000050: 911b d13e 4d56 e6bb 3848 cdbc c473 b23c
00000060: ec35 b53e 280d 9dbd 1404 ca3e 24d9 f5bc
00000070: bc0e 04bc cab3 52bd ac3b 433d 8dc7 d23e
00000080: 6de6 f0bb 3b9e cf3e a594 b93e bd37 81bd
00000090: 2f3a 87bd 0c3a 3bbd 73b2 a93e 0182 7dbd
000000a0: bda5 2bbb a377 dc3e 2bba 043d 81ed 50bc
000000b0: 2a1d 3c3c 0dd9 f5bc 0929 d83e 36d5 84bd
000000c0: 4ec8 0abd 90f7 b23c 08b2 31bd d0b6 57bd
000000d0: 27e9 89bc 66a0 b73e 3f67 e43c 1fd1 253d
000000e0: b800 a73e 6170 aa3e 09d4 cc3e e576 da3c
000000f0: 44f8 d83c 3a3f bd3e a4d3 be3e a55f 503a
00000100: 7524 28bd 7fb2 88bd 1fb9 c83e 9b5b 9e3e
00000110: 48d2 f8bc b6fc cc3c c1cb 0b3d 34c4 3f3d
00000120: 6a0b a93e 5de6 a73e a54e eabc ea89 353d
00000130: 147b 1e3d dec7 62bd 4db1 ce3e 423b 81bd
00000140: d0f4 b63e a14d 413d 382a c43e a0d2 82bb
00000150: ab95 86bc 1ddb 1bbb b758 9d3b dd73 aa3e
00000160: 6b80 bf3e 440b 273c 74a4 98bd 5f7d bf3e
00000170: d676 aa3e de9a a83b 5add 88bb fbdc 363d
00000180: 974a 2bbd 4d3a 1fbd af26 b63c cdbf 95bc
00000190: 5dae b43e 8a79 c13e 6174 423c 49e2 c53e
000001a0: 4975 c43e 6e7b d83e a378 54bd 9473 29bd
000001b0: 28f5 993e 9901 6abd 4623 73bd 87e1 12bd
000001c0: 9136 de3e ec0e 91bd 62fb b93e 3e1d 9fbd
000001d0: 3c3c 92bd 9b39 8ebd 1ed1 973e 1f6a 343d
000001e0: c456 4c3d 6b6d 9ebd 2a16 05bc 5c51 7abd
000001f0: 9e6f 4fbd 6b0d 983c 4369 e33c a17c 3cbd
-0.07638946 -0.02763784 0.043896977 -0.0880943 0.017604396 -0.03652989 0.3953567 0.004154105
-0.00996838 0.04313614 -0.052958302 -0.036665596 0.3639655 0.008375399 0.37072247 0.37627047
0.416563 0.37690583 -0.040149037 0.42964095 0.40841344 -0.007029331 -0.02505885 0.021783717
0.35392702 -0.07668525 0.39456236 -0.030010767 -0.008060154 -0.05144099 0.04766433 0.4116787
-0.0073516876 0.40550408 0.3624622 -0.06309459 -0.066028945 -0.045709655 0.33143958 -0.06189156
-0.0026191317 0.43060026 0.032404106 -0.012751938 0.011481563 -0.030010724 0.42218807 -0.06485979
-0.03388243 0.021846563 -0.043382674 -0.052664578 -0.016834809 0.35864562 0.027881263 0.040482637
0.32617736 0.33288863 0.4000552 0.026668021 0.02648557 0.369623 0.37270844 0.00079488225
-0.041050393 -0.066746704 0.39203736 0.30929264 -0.030373707 0.025022846 0.03412986 0.046817973
0.3301652 0.3279294 -0.028601954 0.04432098 0.038691595 -0.05536639 0.40369645 -0.06310131
0.35733652 0.047193173 0.3831346 -0.0039923936 -0.01642879 -0.0023781725 0.0048018354 0.33291522
0.37402663 0.010195557 -0.07453242 0.37400338 0.3329379 0.0051454147 -0.004176778 0.044644337
-0.04181918 -0.03887396 0.022235243 -0.018279934 0.3528928 0.3778804 0.011868567 0.38649204
0.3837073 0.4228167 -0.05187286 -0.04136999 0.30069852 -0.05713043 -0.05935981 -0.03585961
0.43401006 -0.07082924 0.36324602 -0.077692494 -0.07140395 -0.06944581 0.2965173 0.044046517
0.049887434 -0.077357136 -0.00812296 -0.061112747 -0.050643556 0.018561086 0.027760154 -0.046017293

net.4.weight f4 [1, 128]
00000000: d110 313c b713 7fbd 5d9c 37bc dda9 4fbc
00000010: 5b0c 0dbc 080c c13c 491d 743e d15f 8e3d
00000020: 109a 18bd fd73 383b b37a 76bd 17b4 94b8
00000030: 8e05 a43e eb28 51bd d268 883e f1b8 993e
00000040: a38a 7d3e 1d75 943e 35a2 973c 456b 9b3e
00000050: 0b04 943e 40ee 53bd 8fa4 ba3b 5afc 19bd
00000060: 5815 993e a0d9 45bd 4088 853e f0d5 94bd
00000070: b93c 57bd 587e 2fbd bf2f 7b3b f51d 8e3e
00000080: 4631 1f3b 710e 7c3e 32e8 7e3e 4f88 f03c
00000090: b480 cfbb 2d8d 6dbc 77e9 843e 1bba 90bd
000000a0: 6e4d 68bc 4905 963e 1fac e13c dbef c73c
000000b0: cfef 42bd 4f49 433d b512 943e 289a 63bb
000000c0: ea73 a1bd b702 6bbc 6cae 85bd 6c09 79bb
000000d0: b7cf dfbc 0941 a33e 2f69 833d aeef e2bb
000000e0: 9da4 893e 310d 853e df16 813e 4c5d 42bd
000000f0: ac16 6cbd da1a a03e e5a3 883e f0a3 d5bc
00000100: f511 9ebc e06a 0a3c 6b2d 7c3e 0b57 8d3e
00000110: 4e9d 38bc 2c76 42bd c771 3bbc 7b67 5abd
00000120: 2b8b 843e 782b 9e3e 021b 16bd d489 5ebd
00000130: 835e 22bd c627 293c d7aa a03e b0e4 40bc
00000140: d923 9b3e a4d9 00bd 383e 973e 6e36 363d
00000150: 071c 75bd ea83 5ebd 086b 09bd be6f 863e
00000160: bba8 9e3e 069e 45bd 44e2 96bc 2fe5 a13e
00000170: 0322 8b3e 7db0 8b3a 925c 8f3b 46d0 96bd
00000180: 15ae 22bd 811f c1bc bad9 49bd 232f 1ab9
00000190: b13a 8d3e 486e 833e be49 47b9 f9ff 823e
000001a0: 123e 8f3e ec38 9b3e ac55 30bb 0909 8ebd
000001b0: 81e5 843e 963c 4bbf 4fa1 9d3b d307 3cbb
000001c0: 25c9 a13e 31c4 8dbb 468e 813e 44d8 4fbc
000001d0: 7625 c1bc c149 42bc 3550 843e 4421 2c3b
000001e0: 38dc b33b 3c3f 2f3d 9dec 0fbd 8c7c 74ba
000001f0: d4dd 94bd 52b1 73bd 9d8f 5cbd ce12 023d
0.010807232 -0.06227466 -0.0112067135 -0.012674776 -0.008608903 0.023565307 0.23839296 0.06951869
-0.0372563 0.0028145306 -0.06017561 -7.090734e-05 0.32035488 -0.051064413 0.26642472 0.30023912
0.24759917 0.289956 0.018509964 0.30355278 0.28909335 -0.051740885 0.0056958864 -0.037594177
0.29899096 -0.048303246 0.26080513 -0.07267368 -0.052548144 -0.0428451 0.003832802 0.2775723
0.0024290844 0.24614884 0.24893263 0.029361872 -0.0063324813 -0.014498991 0.2595937 -0.07066747
-0.014178617 0.29300907 0.027547894 0.024406364 -0.04759198 0.047677334 0.28920522 -0.0034729335
-0.07883437 -0.014343909 -0.06527409 -0.0038 -0.027320726 0.31885555 0.064165466 -0.0069255447
0.26883402 0.25986627 0.25212762 -0.047452256 -0.05763881 0.31270486 0.26687542 -0.026079148
-0.019295672 0.008448333 0.246267 0.2760547 -0.011267973 -0.04747598 -0.011440701 -0.053321343
0.25887427 0.3089254 -0.03664685 -0.054330662 -0.039640915 0.010324424 0.3138034 -0.011773273
0.30300787 -0.03145756 0.29539657 0.044485502 -0.059841182 -0.05432502 -0.03354934 0.26257128
0.30988106 -0.048246406 -0.018418439 0.31620166 0.27174386 0.0010657456 0.004375049 -0.07363944
-0.0397168 -0.023574593 -0.049279906 -0.00014704144 0.2758384 0.25670075 -0.0001900559 0.25585917
0.27977043 0.30316865 -0.0026906533 -0.06935317 0.25956348 -0.7938932 0.0048104892 -0.0028691187
0.31598774 -0.0043263664 0.2530386 -0.012685839 -0.023577433 -0.011858405 0.25842443 0.0026264945
0.0054888986 0.042784914 -0.03513776 -0.000932642 -0.07268873 -0.059495278 -0.053847898 0.031756215
